model.pth (torch, 3014 bytes, 3 tensors)

genre_hist_emb.weight f4 [10, 10]
0	0x3e818526	0.25296897
1	0x3fa9b6d1	1.3258916
2	0x3f630e28	0.88693476
3	0x3eb216bb	0.34782967
4	0x3eae4900	0.3404007
5	0xbec8be65	-0.3920776
6	0xbf15730b	-0.58378667
7	0xbed16272	-0.4089542
8	0xbfaca193	-1.3486809
9	0xbeecf794	-0.46282637
10	0x3f986ee8	1.1908846
11	0xbe73369d	-0.23751302
12	0xbc0596db	-0.0081536425
13	0xbf8f147f	-1.117813
14	0x3fa02dcc	1.2513976
15	0x3f88631a	1.0655243
16	0xbea4eec7	-0.32213423
17	0x3f127ab5	0.57218486
18	0xbda54c18	-0.08071154
19	0xbb21291e	-0.0024591158
20	0x3fbd1290	1.477129
21	0x3f46aedd	0.7761057
22	0xbd47ed9e	-0.048810594
23	0xbed40ee6	-0.41417617
24	0xbef430ae	-0.4769339
25	0x3ec9b034	0.39392245
26	0x3f1004cb	0.56257313
27	0x3fece3a3	1.8506969
28	0xbf8d69cd	-1.1047913
29	0xbf2506b5	-0.6446336
30	0xbe3fa84f	-0.18716548
31	0xbfdce860	-1.7258415
32	0x3e72b22d	0.23700781
33	0x3fd1e2d5	1.6397349
34	0xbf1bcdb0	-0.6086073
35	0x3e5fdccb	0.2186157
36	0xbfa38616	-1.2775295
37	0x401da990	2.4634743
38	0xbe8a59ba	-0.2702158
39	0x3f1e8458	0.6192069
40	0xbdedf1fb	-0.1161842
41	0x3e6e3050	0.23260617
42	0x3fc810c2	1.5630114
43	0xbf1328d3	-0.5748417
44	0xbf96b890	-1.1775074
45	0xbf96a23d	-1.1768261
46	0x3e902d99	0.28159788
47	0x3ef7f902	0.48432165
48	0x3eae09e4	0.3399192
49	0x3b93da10	0.004512079
50	0x3d5a2632	0.053259082
51	0xbe1a0016	-0.15039095
52	0x3f8f034e	1.1172884
53	0xbe29988c	-0.16562098
54	0xbfe01164	-1.7505307
55	0xbe5dca98	-0.21659315
56	0x3edeb206	0.43495196
57	0xbe986106	-0.29761523
58	0x3d952eee	0.07284342
59	0xc01ef0d2	-2.4834485
60	0xbed13bf7	-0.40866062
61	0x3e9232a6	0.28554267
62	0xbee8a126	-0.45435447
63	0xbf36dadd	-0.7142771
64	0x3ed8abb2	0.42318493
65	0x3fbd903d	1.4809643
66	0xbe87f363	-0.26552877
67	0x3eefbf79	0.4682577
68	0xbda271e6	-0.07931881
69	0x3e577084	0.21039015
70	0x3f2dd6e4	0.6790602
71	0xbfd5f315	-1.6714808
72	0xbf2a28d1	-0.6646853
73	0xbf08a85c	-0.53381896
74	0xbf1e0d34	-0.61738896
75	0x3f68cb01	0.9093476
76	0xbf5d3ab9	-0.8641773
77	0xbfbd27f9	-1.4777824
78	0xbfc5b763	-1.544659
79	0x3ca26863	0.019825166
80	0xbf18d962	-0.597067
81	0xbeb6685e	-0.356265
82	0xbdffae6f	-0.124844424
83	0x3e524506	0.20534143
84	0x3f9c901c	1.2231479
85	0x3f2989b5	0.6622575
86	0x3fb1c6ec	1.3888831
87	0x3f4fe75e	0.81212413
88	0x3f3b78a0	0.73230934
89	0x3e03c8a3	0.12869506
90	0x3ea156eb	0.31511626
91	0xbf046060	-0.51709557
92	0x3cb4248e	0.021990087
93	0xbe6113c4	-0.21980196
94	0xbf7f1d51	-0.9965411
95	0xbe841e5e	-0.25804418
96	0xbfa28f6f	-1.2700022
97	0x3f600cfc	0.8751981
98	0xbfa48511	-1.2853109
99	0xc022dadc	-2.544608

current_item_emb.weight f4 [10, 10]
0	0x3dd0df2b	0.10198816
1	0x3f3b3979	0.7313457
2	0xbd746947	-0.059670713
3	0xbf8ab83d	-1.0837475
4	0xbff73550	-1.9313145
5	0x3ec41a63	0.3830138
6	0x3d1ef78f	0.03881031
7	0xbf807c2f	-1.0037898
8	0xbe91a1d2	-0.28443772
9	0x3ec43bae	0.38326782
10	0xbf39eadf	-0.7262401
11	0x3f574b79	0.8409954
12	0x3e0d2501	0.13783647
13	0xbf77530f	-0.9661111
14	0xbf8df2f6	-1.1089771
15	0x3f85ca4b	1.045236
16	0xbd89a72b	-0.06721338
17	0x3f0f3587	0.5594105
18	0xbec8f440	-0.39248848
19	0xbee1026c	-0.4394716
20	0xbf2876f8	-0.6580653
21	0xbe0143fb	-0.12623589
22	0x3e8b6c1f	0.27230927
23	0xbf889ba4	-1.0672498
24	0xbc47fecb	-0.0122067435
25	0xbf2512d2	-0.6448184
26	0xc02ddc99	-2.7165892
27	0x3f219fb7	0.6313433
28	0xbe223051	-0.15838744
29	0xbe93645f	-0.28787515
30	0x3f22406f	0.6337957
31	0xbdba45a6	-0.09095316
32	0xbfabcdc0	-1.3422165
33	0x3ff0e94d	1.8821198
34	0xc01a6e38	-2.4129772
35	0x3ecfb86f	0.405704
36	0x3f4b0f8b	0.7932059
37	0x3f693b74	0.91106343
38	0xbea9a1ef	-0.33131358
39	0x3f47d7ed	0.7806385
40	0xbe93b2b1	-0.28847268
41	0xc027124d	-2.610492
42	0x3fd836ac	1.6891685
43	0xbfeec8b7	-1.8655003
44	0xbf8c160a	-1.0944226
45	0x3dddd3d7	0.10831421
46	0x3e844776	0.2583577
47	0x3e609e07	0.21935283
48	0xbeddd80e	-0.433289
49	0x3f7c78a3	0.9862158
50	0xbf93cf66	-1.1547668
51	0xc0001970	-2.0015526
52	0x3eff51ad	0.49867
53	0x3e24c17c	0.16089433
54	0xbf871ebb	-1.0556253
55	0x3ee01612	0.43766838
56	0x3f070539	0.52742344
57	0x3e8916e6	0.26775283
58	0xbeea07c3	-0.45709047
59	0xbf753d20	-0.95796394
60	0xbfd009fd	-1.6253048
61	0x3f9d1c42	1.2274249
62	0xbf94b38d	-1.1617295
63	0x3f03e1c0	0.5151634
64	0x3f8a1137	1.0786504
65	0xbf83cc0d	-1.0296646
66	0xbfbf0553	-1.49235
67	0xbf434f56	-0.7629293
68	0x3eb80328	0.35939908
69	0x3fbcbb3d	1.474464
70	0x3fdfb73e	1.7477796
71	0x3f12d881	0.5736161
72	0x3e719902	0.23593524
73	0x3f1ddf04	0.6166842
74	0xbe80242d	-0.250276
75	0xbefbeb36	-0.4920289
76	0x3ff75140	1.932167
77	0xbd194ae8	-0.03742495
78	0xbfcaf110	-1.5854816
79	0x4014dc29	2.3259375
80	0x3f37e34e	0.71831214
81	0xbff45aae	-1.9090173
82	0x3f84dec6	1.0380485
83	0x3d9ff354	0.07810083
84	0x3e4fd7b8	0.20297134
85	0xbf235138	-0.63795805
86	0x3dc912ff	0.09818076
87	0x3f62bb94	0.8856747
88	0x40180032	2.375012
89	0x3cb58978	0.022160277
90	0x3f38ee9b	0.72239083
91	0x3f280281	0.6562882
92	0x3a7a70af	0.00095535343
93	0xbf9d504f	-1.2290133
94	0xbd0d19c1	-0.03444839
95	0x3dabac92	0.083825245
96	0xbef5a68b	-0.47978625
97	0xbf198590	-0.59969425
98	0x3f29a68a	0.66269743
99	0xbe894333	-0.2680908

item_hist_emb.weight f4 [10, 10]
0	0x3ff56420	1.9171181
1	0xbf5c60d9	-0.8608528
2	0xbfe0d33a	-1.7564461
3	0xbf6da33c	-0.928272
4	0xbfdeec4e	-1.7415864
5	0xbfbc5077	-1.4712056
6	0xbf895cce	-1.0731447
7	0x3f5556d1	0.83335596
8	0x3f047e9d	0.51755697
9	0x3e05fb8a	0.13084236
10	0xbf10b96d	-0.5653294
11	0xbe88e6a7	-0.26738474
12	0xbbc0d183	-0.0058843507
13	0x3fe0e740	1.7570572
14	0x3fb5657a	1.4171593
15	0x3ff923b9	1.9464027
16	0x3e33c735	0.1755646
17	0xbfb4d977	-1.4128865
18	0xbeaaa425	-0.33328357
19	0xbf043895	-0.5164884
20	0x3bc3f091	0.0059796055
21	0x3f0b3f2b	0.5439326
22	0xbe363b88	-0.17796147
23	0x3fb4eb21	1.4134256
24	0x3fdb7f86	1.7148292
25	0xbee923a1	-0.45534995
26	0xbf9e9c7d	-1.2391506
27	0xbe88395b	-0.2660626
28	0x3f87d468	1.0611696
29	0x3f80927c	1.0044703
30	0x3de6832e	0.11255489
31	0xbf270078	-0.6523509
32	0xbe47bdea	-0.1950604
33	0x3eb39f0b	0.35082278
34	0x3e528579	0.20558728
35	0xbf405d11	-0.7514201
36	0xbfb993ff	-1.449829
37	0xbcc9df04	-0.024642475
38	0xc0209290	-2.5089455
39	0x3f09bd74	0.5380471
40	0xbf2f2675	-0.68418056
41	0xbf9822fd	-1.1885678
42	0x3ff0756c	1.8785834
43	0xc005098a	-2.0787072
44	0x3dfc1627	0.12308913
45	0xbfb83205	-1.4390265
46	0xbf8f5e75	-1.1200701
47	0xbf3880b4	-0.72071385
48	0x3f07def9	0.53074604
49	0x3eaedcfc	0.34152973
50	0x3f87ae31	1.0600034
51	0xbdea8506	-0.114511535
52	0xbf6facd3	-0.93623084
53	0x3e98f5eb	0.2987512
54	0x3e5a3d34	0.2131241
55	0x3f979121	1.1841165
56	0xbf9869cc	-1.1907287
57	0x3ec80bfc	0.39071643
58	0xbf8817ef	-1.0632304
59	0x3f4816c8	0.7815976
60	0x3cc56bd4	0.024099268
61	0xbf1ff410	-0.62481785
62	0xbefc5c11	-0.4928899
63	0x403c4a5c	2.9420385
64	0x3e23a977	0.15982614
65	0x3f9b5ea5	1.2138258
66	0xbfc553b0	-1.5416164
67	0xbf0f4a12	-0.559724
68	0xbdb5c5d2	-0.08875622
69	0x3faabe94	1.333941
70	0x3f742f4e	0.9538468
71	0xbd80a5cd	-0.06281624
72	0x3f973251	1.181223
73	0xbd01dd87	-0.031705406
74	0xbd31def5	-0.04342552
75	0x3ef6e1a2	0.4821902
76	0xbed91679	-0.42399958
77	0xc01eb946	-2.4800582
78	0x3fca344c	1.579721
79	0xbf967c9e	-1.175678
80	0xbf73681b	-0.9508073
81	0xbf7cf83b	-0.9881627
82	0x3f0f04ea	0.55866873
83	0x3f3952a1	0.72391707
84	0xbf76a328	-0.96342707
85	0x3ffdc2ae	1.9825037
86	0xbef02252	-0.46901184
87	0xbf9d5bff	-1.22937
88	0x3f76741c	0.9627092
89	0xbdbf4590	-0.0933944
90	0xbf669c01	-0.90081793
91	0xbf50e0e0	-0.8159313
92	0xbd866095	-0.0656139
93	0x3f95df14	1.1708703
94	0x3e028f1f	0.12749909
95	0x3f833d33	1.0253052
96	0xbf0afd18	-0.5429244
97	0xbfcdc90e	-1.6076982
98	0x3da90c85	0.08254341
99	0x3e6097a8	0.21932852
